2023-12-20 21:59:56 VAE(
  (encoder1): Linear(in_features=1024, out_features=64, bias=True)
  (mu): Linear(in_features=64, out_features=64, bias=True)
  (log_std2): Linear(in_features=64, out_features=64, bias=True)
  (decoder1): Linear(in_features=64, out_features=64, bias=True)
  (decoder2): Linear(in_features=64, out_features=1024, bias=True)
)
2023-12-20 21:59:56 Metrics: ['kl_divergence', 'mse', 'mae']
2023-12-20 21:59:56 Device: cuda:4
2023-12-20 21:59:56 
2023-12-20 21:59:56 Training:
2023-12-20 21:59:56 Batch size: 32
2023-12-20 21:59:56 Optimizer: <class 'torch.optim.adam.Adam'>
2023-12-20 21:59:56 Optimizer params: {'lr': 0.001}
2023-12-20 21:59:56 Weight decay: 0.0
2023-12-20 21:59:56 Max grad norm: None
…
2023-12-20 22:08:11 --- Train epoch-18, step-7543 ---
2023-12-20 22:08:11 loss: 19229.1087
2023-12-20 22:08:18 --- Eval epoch-18, step-7543 ---
2023-12-20 22:08:18 kl_divergence: 0.1048
2023-12-20 22:08:18 mse: 0.0000
2023-12-20 22:08:18 mae: 0.0000
2023-12-20 22:08:18 loss: 19123.9767
2023-12-20 22:08:18 
2023-12-20 22:08:39 --- Train epoch-19, step-7940 ---
2023-12-20 22:08:39 loss: 19221.1448
2023-12-20 22:08:46 --- Eval epoch-19, step-7940 ---
2023-12-20 22:08:46 kl_divergence: 0.0985
2023-12-20 22:08:46 mse: 0.0000
2023-12-20 22:08:46 mae: 0.0000
2023-12-20 22:08:46 loss: 19112.7360
2023-12-21 14:06:47 VAE(
  (encoder1): Linear(in_features=16384, out_features=256, bias=True)
  (mu): Linear(in_features=256, out_features=256, bias=True)
  (log_std2): Linear(in_features=256, out_features=256, bias=True)
  (decoder1): Linear(in_features=256, out_features=256, bias=True)
  (decoder2): Linear(in_features=256, out_features=16384, bias=True)
)
2023-12-21 14:06:47 Metrics: ['kl_divergence', 'mse', 'mae']
2023-12-21 14:06:47 Device: cuda:4
2023-12-21 14:06:47 
2023-12-21 14:06:47 Training:
2023-12-21 14:06:47 Batch size: 32
2023-12-21 14:06:47 Optimizer: <class 'torch.optim.adam.Adam'>
2023-12-21 14:06:47 Optimizer params: {'lr': 0.002}
2023-12-21 14:06:47 Weight decay: 0.0
2023-12-21 14:06:47 Max grad norm: None
…
