2023-12-21 15:43:23 VAE(
  (encoder1): Sequential(
    (0): ResBlock2D(
      (conv1): Conv2d(3, 16, kernel_size=(3, 3), stride=(2, 2), padding=(1, 1))
      (bn1): BatchNorm2d(16, eps=1e-05, momentum=0.1, affine=True, track_running_stats=True)
      (relu): ELU(alpha=1.0)
      (conv2): Conv2d(16, 16, kernel_size=(3, 3), stride=(1, 1), padding=(1, 1))
      (bn2): BatchNorm2d(16, eps=1e-05, momentum=0.1, affine=True, track_running_stats=True)
      (maxpool): MaxPool2d(kernel_size=2, stride=2, padding=0, dilation=1, ceil_mode=False)
      (downsample): Sequential(
        (0): Conv2d(3, 16, kernel_size=(3, 3), stride=(2, 2), padding=(1, 1))
        (1): BatchNorm2d(16, eps=1e-05, momentum=0.1, affine=True, track_running_stats=True)
      )
      (dropout): Dropout(p=0.5, inplace=False)
    )
    (1): ResBlock2D(
      (conv1): Conv2d(16, 64, kernel_size=(3, 3), stride=(2, 2), padding=(1, 1))
      (bn1): BatchNorm2d(64, eps=1e-05, momentum=0.1, affine=True, track_running_stats=True)
      (relu): ELU(alpha=1.0)
      (conv2): Conv2d(64, 64, kernel_size=(3, 3), stride=(1, 1), padding=(1, 1))
      (bn2): BatchNorm2d(64, eps=1e-05, momentum=0.1, affine=True, track_running_stats=True)
      (maxpool): MaxPool2d(kernel_size=2, stride=2, padding=0, dilation=1, ceil_mode=False)
      (downsample): Sequential(
        (0): Conv2d(16, 64, kernel_size=(3, 3), stride=(2, 2), padding=(1, 1))
        (1): BatchNorm2d(64, eps=1e-05, momentum=0.1, affine=True, track_running_stats=True)
      )
      (dropout): Dropout(p=0.5, inplace=False)
    )
    (2): ResBlock2D(
      (conv1): Conv2d(64, 256, kernel_size=(3, 3), stride=(2, 2), padding=(1, 1))
      (bn1): BatchNorm2d(256, eps=1e-05, momentum=0.1, affine=True, track_running_stats=True)
      (relu): ELU(alpha=1.0)
      (conv2): Conv2d(256, 256, kernel_size=(3, 3), stride=(1, 1), padding=(1, 1))
      (bn2): BatchNorm2d(256, eps=1e-05, momentum=0.1, affine=True, track_running_stats=True)
      (maxpool): MaxPool2d(kernel_size=2, stride=2, padding=0, dilation=1, ceil_mode=False)
      (downsample): Sequential(
        (0): Conv2d(64, 256, kernel_size=(3, 3), stride=(2, 2), padding=(1, 1))
        (1): BatchNorm2d(256, eps=1e-05, momentum=0.1, affine=True, track_running_stats=True)
      )
      (dropout): Dropout(p=0.5, inplace=False)
    )
  )
  (mu): Linear(in_features=1024, out_features=256, bias=True)
  (log_std2): Linear(in_features=1024, out_features=256, bias=True)
  (decoder1): Sequential(
    (0): ConvTranspose2d(256, 256, kernel_size=(5, 5), stride=(2, 2))
    (1): ReLU()
    (2): ConvTranspose2d(256, 128, kernel_size=(5, 5), stride=(2, 2))
    (3): ReLU()
    (4): ConvTranspose2d(128, 64, kernel_size=(5, 5), stride=(2, 2))
    (5): ReLU()
    (6): ConvTranspose2d(64, 32, kernel_size=(6, 6), stride=(2, 2))
    (7): ReLU()
    (8): ConvTranspose2d(32, 3, kernel_size=(6, 6), stride=(2, 2))
    (9): Sigmoid()
  )
)
2023-12-21 15:43:23 Metrics: ['kl_divergence', 'mse', 'mae']
2023-12-21 15:43:23 Device: cuda:4
2023-12-21 15:43:23 
2023-12-21 15:43:23 Training:
2023-12-21 15:43:23 Batch size: 256
2023-12-21 15:43:23 Optimizer: <class 'torch.optim.adam.Adam'>
2023-12-21 15:43:23 Optimizer params: {'lr': 0.001}
2023-12-21 15:43:23 Weight decay: 0.0
…
