2024-01-24 16:12:40 RETAIN(
  (embeddings): ModuleDict(
    (conditions): Embedding(1672, 256, padding_idx=0)
    (procedures): Embedding(463, 256, padding_idx=0)
    (drugs): Embedding(1413, 256, padding_idx=0)
  )
  (linear_layers): ModuleDict()
  (retain): ModuleDict(
    (conditions): RETAINLayer(
      (dropout_layer): Dropout(p=0.8, inplace=False)
      (alpha_gru): GRU(256, 256, batch_first=True)
      (beta_gru): GRU(256, 256, batch_first=True)
      (alpha_li): Linear(in_features=256, out_features=1, bias=True)
      (beta_li): Linear(in_features=256, out_features=256, bias=True)
    )
    (procedures): RETAINLayer(
      (dropout_layer): Dropout(p=0.8, inplace=False)
      (alpha_gru): GRU(256, 256, batch_first=True)
      (beta_gru): GRU(256, 256, batch_first=True)
      (alpha_li): Linear(in_features=256, out_features=1, bias=True)
      (beta_li): Linear(in_features=256, out_features=256, bias=True)
    )
    (drugs): RETAINLayer(
      (dropout_layer): Dropout(p=0.8, inplace=False)
      (alpha_gru): GRU(256, 256, batch_first=True)
      (beta_gru): GRU(256, 256, batch_first=True)
      (alpha_li): Linear(in_features=256, out_features=1, bias=True)
      (beta_li): Linear(in_features=256, out_features=256, bias=True)
    )
  )
  (fc): Linear(in_features=768, out_features=10, bias=True)
)
2024-01-24 16:12:40 Metrics: ['accuracy', 'cohen_kappa']
2024-01-24 16:12:40 Device: cuda
2024-01-24 16:12:40 
2024-01-24 16:12:40 Training:
2024-01-24 16:12:40 Batch size: 256
2024-01-24 16:12:40 Optimizer: <class 'torch.optim.adam.Adam'>
2024-01-24 16:12:40 Optimizer params: {'lr': 0.001}
2024-01-24 16:12:40 Weight decay: 0.0
2024-01-24 16:12:40 Max grad norm: None
…
