2024-01-24 15:41:30 RETAIN(
  (embeddings): ModuleDict(
    (conditions): Embedding(1672, 256, padding_idx=0)
    (procedures): Embedding(463, 256, padding_idx=0)
    (drugs): Embedding(1413, 256, padding_idx=0)
  )
  (linear_layers): ModuleDict()
  (retain): ModuleDict(
    (conditions): RETAINLayer(
      (dropout_layer): Dropout(p=0.8, inplace=False)
      (alpha_gru): GRU(256, 256, batch_first=True)
      (beta_gru): GRU(256, 256, batch_first=True)
      (alpha_li): Linear(in_features=256, out_features=1, bias=True)
      (beta_li): Linear(in_features=256, out_features=256, bias=True)
    )
    (procedures): RETAINLayer(
      (dropout_layer): Dropout(p=0.8, inplace=False)
      (alpha_gru): GRU(256, 256, batch_first=True)
      (beta_gru): GRU(256, 256, batch_first=True)
      (alpha_li): Linear(in_features=256, out_features=1, bias=True)
      (beta_li): Linear(in_features=256, out_features=256, bias=True)
    )
    (drugs): RETAINLayer(
      (dropout_layer): Dropout(p=0.8, inplace=False)
      (alpha_gru): GRU(256, 256, batch_first=True)
      (beta_gru): GRU(256, 256, batch_first=True)
      (alpha_li): Linear(in_features=256, out_features=1, bias=True)
      (beta_li): Linear(in_features=256, out_features=256, bias=True)
    )
  )
  (fc): Linear(in_features=768, out_features=10, bias=True)
)
2024-01-24 15:41:30 Metrics: ['accuracy', 'cohen_kappa']
2024-01-24 15:41:30 Device: cuda
2024-01-24 15:41:30 
2024-01-24 15:41:30 Training:
2024-01-24 15:41:30 Batch size: 32
2024-01-24 15:41:30 Optimizer: <class 'torch.optim.adam.Adam'>
2024-01-24 15:41:30 Optimizer params: {'lr': 0.001}
2024-01-24 15:41:30 Weight decay: 0.0
2024-01-24 15:41:30 Max grad norm: None
…
2024-01-24 15:46:30 --- Eval epoch-3, step-12456 ---
2024-01-24 15:46:30 accuracy: 0.3175
2024-01-24 15:46:30 cohen_kappa: 0.0618
2024-01-24 15:46:30 loss: 1.7576
2024-01-24 15:46:30 
2024-01-24 15:47:38 --- Train epoch-4, step-15570 ---
2024-01-24 15:47:38 loss: 1.8735
2024-01-24 15:47:41 --- Eval epoch-4, step-15570 ---
2024-01-24 15:47:41 accuracy: 0.3317
2024-01-24 15:47:41 cohen_kappa: 0.0874
2024-01-24 15:47:41 loss: 1.7315
2024-01-24 15:47:41 New best cohen_kappa score (0.0874) at epoch-4, step-15570
2024-01-24 15:47:41 Loaded best model
2024-01-24 15:56:46 RETAIN(
  (embeddings): ModuleDict(
    (conditions): Embedding(1672, 256, padding_idx=0)
    (procedures): Embedding(463, 256, padding_idx=0)
    (drugs): Embedding(1413, 256, padding_idx=0)
  )
  (linear_layers): ModuleDict()
  (retain): ModuleDict(
    (conditions): RETAINLayer(
      (dropout_layer): Dropout(p=0.8, inplace=False)
      (alpha_gru): GRU(256, 256, batch_first=True)
      (beta_gru): GRU(256, 256, batch_first=True)
      (alpha_li): Linear(in_features=256, out_features=1, bias=True)
      (beta_li): Linear(in_features=256, out_features=256, bias=True)
    )
    (procedures): RETAINLayer(
      (dropout_layer): Dropout(p=0.8, inplace=False)
      (alpha_gru): GRU(256, 256, batch_first=True)
      (beta_gru): GRU(256, 256, batch_first=True)
      (alpha_li): Linear(in_features=256, out_features=1, bias=True)
      (beta_li): Linear(in_features=256, out_features=256, bias=True)
    )
    (drugs): RETAINLayer(
      (dropout_layer): Dropout(p=0.8, inplace=False)
      (alpha_gru): GRU(256, 256, batch_first=True)
      (beta_gru): GRU(256, 256, batch_first=True)
      (alpha_li): Linear(in_features=256, out_features=1, bias=True)
      (beta_li): Linear(in_features=256, out_features=256, bias=True)
    )
  )
  (fc): Linear(in_features=768, out_features=10, bias=True)
)
2024-01-24 15:56:46 Metrics: ['accuracy', 'cohen_kappa']
2024-01-24 15:56:46 Device: cuda
2024-01-24 15:56:46 
2024-01-24 15:56:46 Training:
2024-01-24 15:56:46 Batch size: 32
2024-01-24 15:56:46 Optimizer: <class 'torch.optim.adam.Adam'>
2024-01-24 15:56:46 Optimizer params: {'lr': 0.001}
2024-01-24 15:56:46 Weight decay: 0.0
2024-01-24 15:56:46 Max grad norm: None
2024-01-24 15:56:46 Val dataloader: <torch.utils.data.dataloader.DataLoader object at 0x7fdd4f4576d0>
2024-01-24 15:56:46 Monitor: cohen_kappa
2024-01-24 15:56:46 Monitor criterion: max
2024-01-24 15:56:46 Epochs: 20
2024-01-24 15:56:46 
2024-01-24 15:57:55 RETAIN(
  (embeddings): ModuleDict(
    (conditions): Embedding(1672, 256, padding_idx=0)
    (procedures): Embedding(463, 256, padding_idx=0)
    (drugs): Embedding(1413, 256, padding_idx=0)
  )
  (linear_layers): ModuleDict()
  (retain): ModuleDict(
    (conditions): RETAINLayer(
      (dropout_layer): Dropout(p=0.8, inplace=False)
      (alpha_gru): GRU(256, 256, batch_first=True)
      (beta_gru): GRU(256, 256, batch_first=True)
      (alpha_li): Linear(in_features=256, out_features=1, bias=True)
      (beta_li): Linear(in_features=256, out_features=256, bias=True)
    )
    (procedures): RETAINLayer(
      (dropout_layer): Dropout(p=0.8, inplace=False)
      (alpha_gru): GRU(256, 256, batch_first=True)
      (beta_gru): GRU(256, 256, batch_first=True)
      (alpha_li): Linear(in_features=256, out_features=1, bias=True)
      (beta_li): Linear(in_features=256, out_features=256, bias=True)
    )
    (drugs): RETAINLayer(
      (dropout_layer): Dropout(p=0.8, inplace=False)
      (alpha_gru): GRU(256, 256, batch_first=True)
      (beta_gru): GRU(256, 256, batch_first=True)
      (alpha_li): Linear(in_features=256, out_features=1, bias=True)
      (beta_li): Linear(in_features=256, out_features=256, bias=True)
    )
  )
  (fc): Linear(in_features=768, out_features=10, bias=True)
)
2024-01-24 15:57:55 Metrics: ['accuracy', 'cohen_kappa']
2024-01-24 15:57:55 Device: cuda
2024-01-24 15:57:55 
2024-01-24 15:57:55 Training:
2024-01-24 15:57:55 Batch size: 32
2024-01-24 15:57:55 Optimizer: <class 'torch.optim.adam.Adam'>
2024-01-24 15:57:55 Optimizer params: {'lr': 0.001}
2024-01-24 15:57:55 Weight decay: 0.0
2024-01-24 15:57:55 Max grad norm: None
…
